DataBase/Tasks.pth (torch, 3188 bytes, 6 tensors)

l1.weight f4 [8, 8]
000000 00 48 9a 39 77 0a 2c be d1 73 36 be 40 ca b1 bc
       0.00029426813 -0.16800867 -0.17817618 -0.021702886
000010 34 21 c7 3d 80 49 38 3b ac 5c 98 be eb 61 51 be
       0.0972313 0.0028119981 -0.29758203 -0.20447509
000020 51 52 35 3f 37 21 a7 bd f1 21 0d be f5 f2 a6 bd
       0.7082873 -0.08160632 -0.13782479 -0.08151809
000030 e9 d5 9f be e6 de 0a be 5c fa 7a be 97 60 9d be
       -0.31217888 -0.13561592 -0.24509567 -0.30737755
000040 b8 6c 2b be 68 74 e5 3e 6f c3 44 be ce 3b 27 3f
       -0.16740692 0.44815373 -0.19215177 0.6532563
000050 a8 76 31 be 09 d8 97 be b4 0f 98 be 01 20 59 3f
       -0.1733042 -0.2965701 -0.2969948 0.8481446
000060 38 2a 88 be 9b 58 e7 3e c3 4e 9f bd d5 70 8c be
       -0.2659471 0.45184788 -0.077786945 -0.27429834
000070 26 c6 fa bd d2 62 86 be 83 9c 36 bc 58 45 4a be
       -0.12244825 -0.2624727 -0.011145714 -0.19753015
000080 25 65 e0 be b1 0a 31 3e 4f 03 e5 be f0 d0 d2 3e
       -0.43827167 0.17289235 -0.44729087 0.41175032
000090 28 f4 b9 be 4d 6f b4 be 11 a4 e7 be 0b 07 57 3f
       -0.3631909 -0.35241166 -0.4524236 0.8399512
0000a0 16 d8 5a 3d df d5 8e be ea fa 2d 3f 6c 7e a1 be
       0.05342873 -0.27897546 0.6796099 -0.31541765
0000b0 11 6c 0a 3f 03 d0 e9 3e ee 76 14 3f 7b 4c a1 be
       0.54071146 0.45666513 0.5799397 -0.31503662
0000c0 83 60 22 3f 36 ff 5b bd 70 6a 88 3b 91 01 53 bd
       0.63428515 -0.053710185 0.004163079 -0.051515166
0000d0 3f 7a a8 3e a6 39 2f 3f 9f 00 b1 3e 78 5f 88 be
       0.32905766 0.6844734 0.34570786 -0.26635337
0000e0 f5 72 0b bf 81 1e 2d 3f 04 cd 0a bf 10 f5 1d 3f
       -0.54472286 0.6762467 -0.5421908 0.6170206
0000f0 bc a3 0a bf 73 43 43 be 90 26 0b bf cc 88 1f 3e
       -0.5415609 -0.19068699 -0.54355717 0.15579528

l1.bias f4 [8]
000000 2e 81 11 be 82 f5 a6 3d 68 09 71 3e 64 f7 ee 3c
       -0.14209434 0.08152296 0.23538744 0.0291707
000010 12 9f e7 3e 6d 41 a1 3e db bd f9 3e d5 26 0b 3f
       0.4523855 0.31495228 0.4877766 0.5435613

l2.weight f4 [8, 8]
000000 e0 2b 21 bc 02 90 a0 be 93 54 ad 3e 82 d1 65 3e
       -0.009837121 -0.3135987 0.33853588 0.22443202
000010 88 f7 7c be 99 98 01 be bc 4a 87 3d ea 79 e7 bd
       -0.247038 -0.12655868 0.06606051 -0.1130255
000020 33 9a 9c 3e 58 d8 f8 3e ab c1 8f be e1 e8 3a be
       0.30586395 0.48602557 -0.28077444 -0.18252899
000030 05 14 f3 bd d0 4c cd 3e 79 97 22 3d 3e b4 91 3c
       -0.11869053 0.40097666 0.039695237 0.017786141
000040 bc c4 ff 3d 09 5b ea bd f0 f3 01 bf 8c 60 a8 be
       0.12488696 -0.11443145 -0.50762844 -0.3288616
000050 32 8e aa be 8b 38 56 3f 17 ce 07 3f 96 6f 3f 3d
       -0.3331161 0.8368003 0.53048843 0.046737276
000060 d4 ee 67 be c9 07 b6 be 9a 87 81 3f 5f 4e ce 3d
       -0.226497 -0.35552815 1.0119507 0.10073542
000070 be c7 90 3f bb d4 0e bf 6c de df 3c b4 b1 80 3f
       1.1310956 -0.5579335 0.027327739 1.0054231
000080 54 ba 92 bd 6f 22 94 3e 00 eb 69 be 46 53 55 be
       -0.071644455 0.2893252 -0.22843552 -0.20832548
000090 33 98 f5 bd 5a 11 5a 3f b4 b0 4b 3f 16 8b 0a be
       -0.1199192 0.85182726 0.795665 -0.1352962
0000a0 d6 27 b4 be ee 57 0a 3f 20 23 1e 3e 3a 9f 6c 3d
       -0.35186642 0.5404042 0.15443087 0.057769038
0000b0 e7 f3 a6 be ed 96 51 3c 8c 6c ff 3e 92 32 34 be
       -0.32607958 0.012792331 0.49887502 -0.17597416
0000c0 50 c2 ac be c9 e9 04 3f 04 01 eb be ca c5 76 be
       -0.33742 0.5191923 -0.45899212 -0.24098888
0000d0 7f ad fe be b0 39 04 3f d8 84 1d 3e fd e4 f1 be
       -0.49741742 0.51650524 0.15382707 -0.47245017
0000e0 89 c5 a0 3e a3 b8 97 bd 58 ab 35 be 36 9f 2b be
       0.31400707 -0.074082635 -0.17741144 -0.16759953
0000f0 9c fc 22 be 61 f6 21 3f c3 97 03 3f aa 14 0e bd
       -0.15916675 0.6326657 0.51403445 -0.034687676

l2.bias f4 [8]
000000 86 d2 45 be dd 65 99 3e bd 15 85 3e 45 9a 0b 3f
       -0.1931859 0.29960528 0.25993147 0.5453227
000010 30 cb e5 3d 3f d7 80 3d 16 a5 1a 3f 7a 7c 95 3d
       0.112203956 0.06291055 0.6040815 0.07299133

l3.weight f4 [2, 8]
000000 b5 16 ae be 63 ac 50 3f f6 13 75 3f 99 7d 88 bf
       -0.340017 0.8151304 0.9573358 -1.0663329
000010 3c 91 76 3f ff 80 2b 3f 33 0e f8 3d f0 a6 4a 3f
       0.9631536 0.6699371 0.12112083 0.79160976
000020 3c 5c a4 bd e5 26 8d be af 3c df be ae d2 15 3f
       -0.08025405 -0.27568737 -0.43600985 0.58524597
000030 2d f0 7b bf 63 53 63 bd 12 b5 2b bf c8 c7 3e bf
       -0.98413354 -0.055499446 -0.67073166 -0.7452359

l3.bias f4 [2]
000000 1f 0f 08 3e cb 1e 2f 3e
       0.13287018 0.1710159
